checkpoint.pth (torch_old, 28417 bytes, 6 tensors)

fc1.weight f4 [64, 37]
0.12080922 0.011669008 -0.42824304 -0.37534285 -0.076063536 -0.011047813 -0.1665407 0.26160938
-0.1662675 -0.38062322 -0.120436065 0.1107979 -0.26535526 -0.38275233 -0.0072081834 0.051798545
0.10434077 -0.024020934 -0.38482407 0.16144566 0.07731204 -0.0020298206 0.24801946 -0.3812973
-0.37456283 -0.052736364 0.3122669 -0.1781757 -0.31615278 -0.02425796 -0.04576013 0.089100555
0.077902526 -0.30606923 -0.090031095 0.022756321 -0.06555026 0.17653823 0.16466184 0.06309864
0.03476536 -0.16871132 0.13243045 -0.10156202 -0.1223765 -0.050785925 -0.8594548 0.16325203
-0.048757423 0.06281433 0.16811335 0.21079 0.07452581 -0.0381502 0.18816036 0.10322563
-0.029966194 0.13383853 -0.06895345 -0.16939345 -0.15452084 -0.09122239 -0.06088546 0.13844559
0.09573507 0.04276535 0.063631155 0.09594634 0.15176107 0.14699985 0.09424324 0.23955269
0.085366845 -0.00456264 0.05326361 0.09621157 0.12578256 0.11224063 0.12624809 -0.7600636
0.13434875 0.22232668 0.14884654 -0.14341788 -0.07774485 0.009842191 0.038130194 0.04923047
0.07159048 -0.16048433 0.1281231 0.14755824 0.11873259 0.07977129 -0.2582288 0.01604343
-0.08134844 0.14696613 0.11687512 -0.5176486 0.1433236 0.20344023 0.13366458 -0.20515938
-0.18215558 0.044097573 -0.019544054 -0.13266683 -0.011374996 0.075553834 0.032550797 0.124074645
-0.001681056 0.07753027 0.09624903 0.0016334769 -0.09831484 0.0010399817 0.10395978 0.11159041
0.029701928 -0.14142178 0.13282031 0.11663888 -0.035157952 -0.16079807 -0.06794843 -0.105372414
-0.035855833 -0.13491388 -0.11400371 -0.010516332 0.13804454 0.11280326 -0.09868873 -0.05274895
-0.12268703 0.011374263 0.20988385 0.036193196 0.18271942 0.23815797 -0.06938623 -0.082683824
-0.37355798 -1.744984 -0.039211795 0.0027162272 -0.11568347 -0.15626551 -0.163613 -0.24159788
0.12194803 0.18723227 0.08126514 -0.20478383 -0.46653387 -0.5707509 -0.043795083 0.000925816
-0.10290294 -0.16146694 -0.28255486 -0.058879647 -0.20678248 -0.138975 0.11965408 0.23125236
-0.09919256 -0.069152124 0.046586767 -0.055839848 -0.14775628 0.060050406 -0.26153117 0.21046132
-0.13609876 0.13728541 0.113551386 -0.02673315 -0.09590585 0.070104584 0.18713157 0.08901919
0.035734948 -0.29384717 0.014778581 0.13626155 -0.25313398 0.019287458 -0.008011478 0.31257594
-0.15532464 0.025357485 -0.2009123 -0.18329145 0.05405311 -0.133255 0.050872013 0.03494718
-0.16201623 0.19521248 -0.1932436 0.075891994 -0.06419831 0.06692357 0.0104243355 -0.011862938
0.219549 0.010518405 -0.20162007 0.13619468 -0.24149615 0.22521615 0.02041343 0.13177122
-0.2066041 -0.04721643 -0.07220122 -1.0296618 -0.007581884 0.0043944074 0.06360743 -0.16104224
0.04467667 -0.14718169 -0.294612 -0.05934473 0.03836419 -0.080749065 -0.21867718 0.40447065
-0.076835155 0.12930143 0.07137912 -0.030373454 0.15686956 0.008950061 0.07089958 -0.10365607
-0.2920196 -0.20667788 -0.18331334 0.013115678 0.022584802 -0.18709943 0.17935012 -0.19569172
0.022005264 0.055278327 -0.24927719 -0.028160362 0.085589305 -0.25226957 0.06881153 0.03868507
00000000: d36a f73d 5e2f 3f3c ac42 dbbe f02c c0be
00000010: 33c7 9bbd e301 35bc a589 2abe aaf1 853e
00000020: 0742 2abe 0ce1 c2be 2fa7 f6bd 02ea e23d
00000030: a5dc 87be 1df8 c3be a032 ecbb b62a 543d
00000040: 9db0 d53d 8dc7 c4bc a907 c5be 0352 253e
00000050: c655 9e3d bd06 05bb d0f8 7d3e 6639 c3be
00000060: b3c6 bfbe 1602 58bd 72e1 9f3e b173 36be
00000070: c7de a1be a1b8 c6bc f96e 3bbd 5a7a b63d
00000080: 5c8b 9f3d 1bb5 9cbe 3962 b8bd 776b ba3c
00000090: 373f 86bd 70c6 343e 1d9d 283e dc39 813d
000000a0: 1f66 0e3d a9c2 2cbe d99b 073e c0ff cfbd
000000b0: 88a0 fabd e704 50bd 3b05 5cbf 8a2b 273e
000000c0: ddb5 47bd cda4 803d e825 2c3e 55d9 573e
000000d0: fda0 983d 6243 1cbd 1cad 403e f667 d33d
000000e0: aa7b f5bc f80c 093e 7737 8dbd 7a75 2dbe
000000f0: b63a 1ebe ced2 babd 0863 79bd aec4 0d3e
00000100: c010 c43d b82a 2f3d 0d51 823d 847f c43d
00000110: 4167 1b3e 2187 163e 9a02 c13d 4d4d 753e
00000120: d0d4 ae3d 3382 95bb f12a 5a3d 920a c53d
00000130: 25cd 003e 6ade e53d 2e47 013e 8793 42bf
00000140: b892 093e 9ba9 633e 3a6b 183e 23dc 12be
00000150: b138 9fbd 2441 213c 682e 1c3d e4a5 493d
00000160: 089e 923d 0156 24be b432 033e 8219 173e
00000170: 122a f33d 215f a33d 9136 84be 836d 833c
00000180: 039a a6bd 4a7e 163e 395c ef3d 9e84 04bf
00000190: 6cc3 123e a352 503e 5edf 083e 4d15 52be
000001a0: fe86 3abe a89f 343d da1a a0bc d0d9 07be
000001b0: 315e 3abc f8bb 9a3d fc53 053d d91a fe3d
000001c0: e156 dcba 31c8 9e3d 361e c53d 641a d63a
000001d0: 4a59 c9bd ff4f 883a dde8 d43d 8389 e43d
000001e0: 7551 f33c dfd0 10be 0c02 083e 5de0 ee3d
000001f0: c901 10bd 40a8 24be 8c28 8bbd 7ecd d7bd
00000200: 91dd 12bd dd26 0abe c77a e9bd b24c 2cbc
00000210: 8c5b 0d3e 6505 e73d 511d cabd 480f 58bd
00000220: 5643 fbbd 1e5b 3a3c cbeb 563e 513f 143d
00000230: cd1a 3b3e afdf 733e 5e1a 8ebd 2356 a9bd
00000240: fe42 bfbe a35b dfbf 8c9c 20bd bb02 323b
00000250: 75eb ecbd 1104 20be 2b8a 27be 6f65 77be
00000260: e4bf f93d d1b9 3f3e 566e a63d dab2 51be
00000270: 87dd eebe bb1c 12bf 7962 33bd 76b2 723a
00000280: c7be d2bd 9757 25be 08ab 90be c92b 71bd
00000290: c9be 53be 764f 0ebe 330d f53d 6bcd 6c3e
000002a0: 7825 cbbd a19f 8dbd c4d1 3e3d 53b8 64bd
000002b0: 6c4d 17be 6af7 753d 6ae7 85be 2c83 573e
000002c0: 795d 0bbe 8c94 0c3e a18d e83d 7bff dabc
000002d0: 496a c4bd fe92 8f3d 6b9f 3f3e b14f b63d
000002e0: cf5e 123d 2373 96be dd21 723c 2688 0b3e
000002f0: c79a 81be bb00 9e3c 9342 03bc f409 a03e
00000300: 6c0d 1fbe 80ba cf3c f4bb 4dbe c1b0 3bbe
00000310: cb66 5d3d 0074 08be 2c5f 503d c624 0f3d
00000320: 95e7 25be c8e5 473e a6e1 45be 436d 9b3d
00000330: 677a 83bd 3a0f 893d d5ca 2a3c c55c 42bc
00000340: 74d1 603e 6355 2c3c 7e75 4ebe 9e76 0b3e
00000350: c44a 77be 109f 663e 113a a73c 09ef 063e
00000360: 0690 53be 0466 41bd 3cde 93bd f5cb 83bf
00000370: 7471 f8bb f6fe 8f3b 9d44 823d 42e8 24be
00000380: e2fe 363d ccb6 16be 62d7 96be 7613 73bd
00000390: c523 1d3d c45f a5bd e9ec 5fbe c716 cf3e
000003a0: c05b 9dbd 9867 043e 372f 923d c0d1 f8bc
000003b0: 6aa2 203e 47a3 123c cd33 913d a249 d4bd
000003c0: 9883 95be 5ea3 53be 7eb6 3bbe 24e3 563c
000003d0: c303 b93c fe96 3fbe 8fa7 373e 6963 48be
000003e0: 6244 b43c 876b 623d 8542 7fbe 8fb0 e6bc
000003f0: 7249 af3d 7a29 81be 0fed 8c3d 3c74 1e3d

fc1.bias f4 [64]
0.10430467 0.038763374 -0.16607891 -0.056915868 0.13819724 -0.069630876 -0.1208459 -0.0005935825
0.0510451 -0.20058241 0.12174969 0.2041168 0.23268099 0.21381257 -0.12048754 -0.0153641375
0.0014105892 0.0150838625 0.039634746 -0.18491177 -0.10625194 0.078738675 0.029014282 -0.083979085
-0.14038412 0.109722205 -0.05587855 -0.23979354 0.05842816 0.16468576 -0.052414082 -0.0841125
0.13546896 -0.023845105 -0.083792076 0.049894903 -0.055085767 0.051440407 -0.021741083 -0.08893827
-0.05789927 -0.03211716 -0.1321845 0.13652977 0.03568903 -0.052745715 0.08761696 -0.19440201
-0.1703223 0.03966098 -0.1415988 0.0845204 -0.046785552 -0.022908792 -0.1835509 0.08292631
0.115781486 -0.13089357 -0.08985853 -0.0896756 0.011562473 0.17136565 0.08112818 0.098562956
00000000: b09d d53d 58c6 1e3d 9710 2abe 9d20 69bd
00000010: 9483 0d3e a29a 8ebd 0e7e f7bd a69a 1bba
00000020: ab14 513d 7a65 4dbe e757 f93d ff03 513e
00000030: ed43 6e3e aff1 5a3e 2cc2 f6bd ddb9 7bbc
00000040: 85e3 b83a 4e22 773c 0b58 223d 8359 3dbe
00000050: 9e9a d9bd be41 a13d 5caf ed3c 3afd abbd
00000060: dbc0 0fbe 09b6 e03d e8e0 64bd 708c 75be
00000070: 5e52 6f3d 62a3 283e 26b0 56bd 2d43 acbd
00000080: 60b8 0a3e cf56 c3bc 2e9b abbd 995e 4c3d
00000090: 9da1 61bd 2db3 523d 5b1a b2bc 4525 b6bd
000000a0: c927 6dbd 488d 03bd 605b 07be 76ce 0b3e
000000b0: a92e 123d e40b 58bd 8570 b33d 5211 47be
000000c0: f868 2ebe 8d73 223d 47ff 10be 0819 ad3d
000000d0: 35a2 3fbd 38ab bbbc c4f4 3bbe 45d5 a93d
000000e0: d81e ed3d f708 06be c007 b8bd d7a7 b7bd
000000f0: 8770 3d3c 7a7a 2f3e 8826 a63d 60db c93d

fc2.weight f4 [64, 64]
-0.019120509 0.10857156 -0.19168866 -0.0617766 0.16960716 -0.0781361 -0.08590409 -0.20197976
-0.018714037 -0.07538459 -0.0020881218 0.2988268 -0.22192301 0.083728 -0.13503928 -0.20259427
0.07909788 -0.26257548 -0.036965832 0.005988732 0.082573645 -0.14138141 0.24949266 -0.039232116
-0.32602847 -0.24646981 0.32365078 0.07893638 -0.12405687 0.12486573 0.0120427115 0.012781731
0.11293456 -0.116506636 -0.15146789 -0.004888795 -0.22249058 0.3572264 -0.31950757 -0.107361086
-0.46310276 -0.009105071 0.26719302 -0.1727745 0.0073434757 -0.26648602 -0.12164074 0.101831056
0.008186991 -0.13409424 -0.13727865 0.06201669 -0.03347762 -0.57334584 0.12605079 -0.09775258
-0.10633298 0.0077753114 0.015786186 0.13774572 -0.07346767 0.16908294 0.026376568 -0.09955388
0.28505805 0.10448746 -0.033032563 0.016866324 -0.002000751 0.04443268 -0.05907098 0.06805129
-0.05936511 -0.10726231 0.047141843 0.4281242 -0.09551532 0.015816651 -0.14971949 -0.071142405
0.011364121 -0.0093793105 0.10905921 0.04641756 0.15390104 -0.098640084 0.19782016 -0.037187807
-0.20482789 -0.02034665 -0.11774287 -0.13625883 0.08953025 0.017800532 -0.06967938 -0.39797133
0.015333687 -0.10211559 -0.17545906 0.008337282 0.08724916 0.3349998 -0.110776395 -0.09002734
-0.20090102 -0.015769023 -0.025770782 -0.16788903 -0.02095061 -0.16837405 -0.16867845 -0.058934044
-0.19924884 -0.0037634901 -0.1039275 0.045208126 -0.060776837 -0.5564282 0.17815335 -0.105627164
-0.027460713 -0.15291838 0.22453932 -0.053594325 -0.17303544 0.052584525 0.062184248 -0.24435541
-0.031584445 -0.05160313 -0.06441509 0.026991822 0.08639917 0.07594534 -0.102087885 0.100070454
0.21739173 0.0074493424 0.2195901 -0.24351992 0.13035654 0.081548855 -0.1071511 -0.08878328
-0.10018134 0.36752728 0.17641574 -0.13912089 -0.21483721 -0.06372129 -0.22318582 0.010354098
-0.39558363 0.15309478 0.11457956 -0.033849463 -0.19060326 0.27865764 0.013686041 -0.06939405
-0.089608625 -0.0758203 -0.03831493 0.024082666 0.05686155 -0.20332749 0.050759375 0.030734334
0.41812545 -0.12442774 -0.042710662 -0.13540994 -0.04665569 -0.022493811 0.042177062 -0.016187485
-0.2311645 0.08231989 -0.023755655 0.04517249 -0.09306394 -0.46493205 -0.07932929 -0.014466791
0.0071804053 -0.09171773 -0.03054226 -0.008651343 0.13988593 -0.20834124 -0.1779231 0.00031278594
0.1537022 -0.10549802 0.11661513 -0.13067693 -0.08952501 -0.024199074 -0.06734601 -0.32245734
-0.11047374 -0.11747457 -0.31613588 -0.52964294 -0.09007966 0.1300983 0.0043697944 -0.19914003
0.03117183 -0.1706652 -0.05664727 -0.11990394 0.14596935 0.0077092275 -0.19585489 -0.0109177325
-0.08518801 0.18117756 0.11311871 -0.3074861 0.09989202 -0.2993605 -0.15922299 -0.2127798
0.097574785 -0.2679029 0.059409596 -0.04788647 -0.06556898 0.020411208 0.71604645 -0.105017275
-0.5525738 -0.027263915 0.11939674 -0.21426342 0.067139454 0.2958611 0.033581942 -0.18326096
0.01684933 0.04121515 -0.14883186 0.017905788 0.026836041 -0.29831704 -0.22719164 -0.056884147
-0.29622966 0.025371773 -0.2729599 0.068944894 -0.40542424 0.06093762 0.1866849 0.020466
00000000: 9da2 9cbc c45a de3d 084a 44be 7609 7dbd
00000010: 80ad 2d3e d205 a0bd 7cee afbd c8d3 4ebe
00000020: 2e4e 99bc 3c63 9abd dfd8 08bb d4ff 983e
00000030: c93f 63be 9679 ab3d bd47 0abe df74 4fbe
00000040: 12fe a13d 4b70 86be 7c69 17bd 203d c43b
00000050: 5f1c a93d 4ac6 10be 017b 7f3e dbb1 20bd
00000060: 34ed a6be 9562 7cbe 8eb5 a53e 66a9 a13d
00000070: 8711 febd 9bb9 ff3d cb4e 453c 776a 513c
00000080: 3c4a e73d 089b eebd 661a 1bbe 2f32 a0bb
00000090: 92d4 63be 61e6 b63e 7f96 a3be 21e0 dbbd
000000a0: ce1b edbe 702d 15bc 86cd 883e cceb 30be
000000b0: 8aa1 f03b db70 88be c81e f9bd cd8c d03d
000000c0: bb22 063c 0050 09be c692 0cbe 3605 7e3d
000000d0: d41f 09bd cbc6 12bf 7513 013e 8132 c8bd
000000e0: 1bc5 d9bd 0ac8 fe3b 0852 813c 370d 0d3e
000000f0: 3876 96bd 1424 2d3e ac13 d83c e8e2 cbbd
00000100: 21f3 913e 85fd d53d 274d 07bd 3f2b 8a3c
00000110: 081f 03bb 0bff 353d 69f4 71bd 7a5e 8b3d
00000120: d428 73bd 58ac dbbd ce17 413d 1833 db3e
00000130: 899d c3bd ec91 813c 1150 19be 1cb3 91bd
00000140: 9430 3a3c aeab 19bc 6f5a df3d 5720 3e3d
00000150: 3c98 1d3e d003 cabd 5e91 4a3e 3e52 18bd
00000160: 67be 51be 05ae a6bc 2c23 f1bd 6f87 0bbe
00000170: a35b b73d 6cd2 913c 10b4 8ebd e6c2 cbbe
00000180: 253a 7b3c fa21 d1bd 8aab 33be 1899 083c
00000190: b0af b23d 1885 ab3e bcde e2bd 4160 b8bd
000001a0: ffb8 4dbe 0a2e 81bc 3f1d d3bc 1aeb 2bbe
000001b0: 9da0 abbc 3f6a 2cbe 0bba 2cbe d364 71bd
000001c0: e307 4cbe e3a4 76bb f1d7 d4bd 282c 393d
000001d0: 22f1 78bd 1472 0ebf d56d 363e 0e53 d8bd
000001e0: 4af5 e0bc a396 1cbe a3ed 653e b985 5bbd
000001f0: 3430 31be df62 573d e9b4 7e3d 4e38 7abe
00000200: b15e 01bd ce5d 53bd 0fec 83bd f41d dd3c
00000210: 0cf2 b03d 3b89 9b3d 7413 d1bd bdf1 cc3d
00000220: f09b 5e3e 9d19 f43b 3adc 603e 495d 79be
00000230: 2f7c 053e 1603 a73d 0972 dbbd 02d4 b5bd
00000240: e02b cdbd 892c bc3e 54a6 343e b575 0ebe
00000250: 49fe 5bbe 4f80 82bd d38a 64be 3ca4 293c
00000260: f089 cabe e1c4 1c3e b0a8 ea3d bca5 0abd
00000270: 802d 43be 37ac 8e3e 6b3b 603c 781e 8ebd
00000280: ba84 b7bd ac47 9bbd 1ef0 1cbd 0349 c53c
00000290: a8e7 683d 1535 50be 10e9 4f3d 92c6 fb3c
000002a0: 8a14 d63e f9d3 febd 60f1 2ebd e7a8 0abe
000002b0: 091a 3fbd f144 b8bc dbc1 2c3d 9e9b 84bc
000002c0: 63b6 6cbe 5597 a83d 389b c2bc ca06 393d
000002d0: 4f98 bebd 930b eebe 6577 a2bd 1f06 6dbc
000002e0: 9b49 eb3b 81d6 bbbd c333 fabc 5dbe 0dbc
000002f0: 423e 0f3e 6857 55be 7931 36be 6bfd a339
00000300: 1c64 1d3e 590f d8bd ead3 ee3d 2cd0 05be
00000310: e358 b7bd 233d c6bc b4ec 89bd 2119 a5be
00000320: 0e40 e2bd 8296 f0bd 90dc a1be ae96 07bf
00000330: af7b b8bd 7d38 053e 7e30 8f3b 5deb 4bbe
00000340: 115c ff3c dcc2 2ebe f806 68bd 3290 f5bd
00000350: fd78 153e b09d fc3b 2f8e 48be 4ae0 32bc
00000360: 0d77 aebd 9c86 393e c8aa e73d d16e 9dbe
00000370: 3094 cc3d c845 99be 5a0b 23be f3e2 59be
00000380: 4ad5 c73d 922a 89be 7a57 733d 9a24 44bd
00000390: 0849 86bd 6835 a73c d24e 373f 4c13 d7bd
000003a0: 7a75 0dbf 9358 dfbc 4786 f43d df67 5bbe
000003b0: 6980 893d 1b7b 973e 388d 093d c3a8 3bbe
000003c0: 9b07 8a3c 38d1 283d 6167 18be 29af 923c
000003d0: 42d7 db3c 03bd 98be eda4 68be 5aff 68bd
000003e0: 6aab 97be 77d8 cf3c 66c1 8bbe fb32 8d3d
000003f0: c493 cfbe ba99 793d 542a 3f3e 50a8 a73c

fc2.bias f4 [64]
0.014006028 -0.046881188 0.080273986 0.19712162 0.2642071 -0.17554232 -0.034212805 0.021485958
0.23184678 0.4746703 -0.1041987 0.17028564 0.07834562 -0.08591352 0.03508072 -0.029015947
0.13104503 -0.011761062 -0.06886865 0.22519368 0.3682911 0.44979185 -0.1711453 -0.13838217
-0.106264986 -0.14425606 0.0843042 -0.012534018 -0.06578034 0.062909 0.11276915 -0.04243463
0.014695661 0.09524897 -0.04195497 -0.11086633 -0.033349887 -0.115633436 0.009072086 0.0021719206
-0.10100712 0.5153625 0.4036049 -0.043298364 0.05722645 -0.06870118 0.35050368 -0.17864937
0.07043285 -0.056903403 0.054959785 0.47700092 0.104154505 -0.117235355 0.21204199 -0.19691654
-0.1283797 -0.13588528 0.045640144 -0.021516645 0.071094945 0.36249092 0.08379348 -0.09686769
00000000: 8a79 653c 7d06 40bd b066 a43d 40da 493e
00000010: 2746 873e 5ec1 33be ba22 0cbd 5203 b03c
00000020: 3e69 6d3e fc07 f33e 2166 d5bd 5c5f 2e3e
00000030: ab73 a03d 6df3 afbd cdb0 0f3d dab2 edbc
00000040: ab30 063e 78b1 40bc 020b 8dbd 2c99 663e
00000050: a790 bc3e 1e4b e63e b740 2fbe 0eb4 0dbe
00000060: 75a1 d9bd dcb7 13be aea7 ac3d 7b5b 4dbc
00000070: d8b7 86bd 6fd6 803d 83f3 e63d efcf 2dbd
00000080: 12c6 703c e411 c33d fad8 2bbd e30d e3bd
00000090: e499 08bd 39d1 ecbd 16a3 143c c856 0e3b
000000a0: d2dc cebd ccee 033f 4da5 ce3e a059 31bd
000000b0: 4866 6a3d 34b3 8cbd 3875 b33e dcef 36be
000000c0: 193f 903d 8b13 69bd 831d 613d 7739 f43e
000000d0: f54e d53d 1719 f0bd 8921 593e 7da4 49be
000000e0: f875 03be 8325 0bbe 29f1 3a3d ad43 b0bc
000000f0: 3a9a 913d 6998 b93e eb9b ab3d 9162 c6bd

fc3.weight f4 [4, 64]
0.40825844 0.22847794 0.23522569 0.14582156 0.17691673 0.2931774 0.44559956 -0.3669503
0.07057094 0.13785864 -0.13460322 0.26511487 0.034825392 0.17187642 0.55664927 -0.08405686
0.22179024 -0.12741391 -0.051673394 0.14970773 0.1284357 0.2139341 -0.089037605 -0.2529604
-0.00257266 -0.4262064 -0.60452604 0.13451424 0.26609117 0.27700484 -0.27660087 0.04614909
0.076919176 0.10735971 0.3705354 0.01549713 0.17001837 -0.33859384 -0.21123812 0.37902647
-0.054419722 0.17086402 0.10620051 0.0069569782 0.30082622 0.06221364 0.20254543 0.10998549
-0.01849189 0.4180285 0.15650277 0.15063164 0.23623127 -0.047911976 0.1127604 -0.123062745
-0.06908943 -0.4154153 -0.027818017 0.043584514 0.061502375 0.18936218 0.030734852 0.13602266
0.3641882 0.17456809 0.18522039 0.089356944 0.16433918 0.42092857 0.41026363 -0.12346814
0.09102314 0.1538089 -0.16207409 0.2856977 0.14338915 0.17708719 0.5229391 -0.045482684
0.12220821 0.27236003 -0.19109058 0.121892996 0.17067322 0.24231838 -0.17127864 -0.16366257
0.03487012 -0.34962305 0.04300295 0.20902285 0.38065007 0.34544143 -0.13728993 0.13106292
-0.07340048 0.022218285 0.122875 -0.05947222 0.19123267 -0.2550575 -0.04496093 0.3658213
-0.0220859 0.18815722 0.088960975 -0.0024641175 0.5129329 0.004400253 0.19828625 -0.085833766
0.008923646 0.35791087 0.20657462 0.12737243 0.23547176 0.023468083 0.10191992 -0.09194273
-0.24380691 -0.10810689 0.007931007 0.07844618 -0.04203072 0.053693626 0.16947396 0.2963026
0.20439504 0.35474655 0.19019005 0.37753808 0.058469832 0.6496903 0.4867271 -0.1294863
0.044724762 0.13766302 -0.18913588 0.3514602 0.13423556 -0.485498 0.5344195 0.11870015
0.15050037 -0.35356438 0.22037467 0.11376832 0.11483451 0.2093592 -0.09126578 0.077649005
0.24746531 -0.09150794 -0.058703355 -0.24446227 0.27719548 0.44239905 -0.12995127 -0.003519999
0.08283208 -0.02427527 0.5743278 0.10073768 0.3270921 -0.23859341 -0.15059282 0.22644866
-0.41474885 0.18051802 0.18267493 -0.34291324 0.174768 -0.18000868 0.17223091 0.19116554
0.15953358 0.3355972 0.15242805 0.20179927 0.06226377 0.15745759 0.15105087 -0.021791646
-0.6759253 -0.70042163 0.20639962 0.05571984 -0.36249992 0.14538588 -0.6640625 0.13961148
0.2012194 0.41038296 0.28756088 0.17319384 0.06921705 -0.40827328 0.36790365 -0.04722318
0.11676875 0.2159786 -0.11301601 -0.76583314 0.2217787 0.04599397 0.41072756 -0.07471677
0.23354022 0.07867235 -0.17743663 0.120672666 0.05528931 0.23312008 -0.27904359 -0.038462393
0.15802392 -0.4326707 -0.18395557 0.5622513 0.7015537 0.020591412 -0.2997144 0.16170788
-0.2807327 0.19024137 0.36099872 -0.003795395 0.04450299 -0.18312165 0.15417323 0.42107296
-0.2997185 0.18630311 0.16552007 -0.31802434 0.56459415 -0.2605532 0.1498611 -0.008427828
0.04810106 0.36958975 0.25960982 0.17787246 0.07062167 -0.051913634 0.10885599 0.0632877
-0.38794044 -0.29546475 -0.3102648 -0.05589304 -0.16487978 0.12596673 -0.34793225 -0.11022
00000000: 4007 d13e 1ff6 693e 01df 703e 3f52 153e
00000010: a929 353e 591b 963e a025 e43e e9e0 bbbe
00000020: 7f87 903d d12a 0d3e 6dd5 09be 23bd 873e
00000030: 12a5 0e3d 5f00 303e 9180 0e3f 0126 acbd
00000040: fb1c 633e cb78 02be 7ba7 53bd fc4c 193e
00000050: a684 033e 8a11 5b3e 5959 b6bd 0784 81be
00000060: 139a 28bb ba37 dabe 38c2 1abf 1abe 093e
00000070: 1a3d 883e 94d3 8d3e a19e 8dbe d406 3d3d
00000080: cd87 9d3d 68df db3d d1b6 bd3e ade7 7d3c
00000090: 4c19 2e3e 2c5c adbe ce4e 58be c20f c23e
000000a0: 37e7 5ebd faf6 2e3e a77f d93d 5df7 e33b
000000b0: e505 9a3e bbd3 7e3d 1268 4f3e 1340 e13d
000000c0: 4e7c 97bc d507 d63e 4342 203e 2e3f 1a3e
000000d0: 9ce6 713e 593f 44bd edee e63d 5208 fcbd
000000e0: c27e 8dbd 50b1 d4be 9ce2 e3bc ad85 323d
000000f0: eae9 7b3d 29e8 413e a8c7 fb3c 8649 0b3e
00000100: e076 ba3e fac1 323e 6aaa 3d3e c600 b73d
00000110: 8848 283e f383 d73e 130e d23e dddc fcbd
00000120: 576a ba3d 1580 1d3e c0f6 25be f846 923e
00000130: 9bd4 123e 5856 353e 56df 053f 0d4c 3abd
00000140: 4c48 fa3d c672 8b3e 40ad 43be 09a3 f93d
00000150: f6c4 2e3e 4f22 783e ab63 2fbe 2997 27be
00000160: f9d3 0e3d cb01 b3be dc23 303d 160a 563e
00000170: 91e4 c23e b3dd b03e bb95 0cbe 5c35 063e
00000180: fe52 96bd 1f03 b63c e3a5 fb3d 2499 73bd
00000190: 7fd2 433e e696 82be f428 38bd ee4c bb3e
000001a0: 7ded b4bc 49ac 403e 2c31 b63d 087d 21bb
000001b0: 924f 033f ff2f 903b 8d0b 4b3e 9dc9 afbd
000001c0: 7c34 123c 1840 b73e 4c88 533e eb6d 023e
000001d0: 821f 713e 2340 c03c 64bb d03d 784c bcbd
000001e0: 85a8 79be 2567 ddbd 0ef1 013c 64a8 a03d
000001f0: 6728 2cbd d9ed 5b3d 958a 2d3e f9b4 973e
00000200: ef4c 513e 57a1 b53e 2ec1 423e ac4c c13e
00000210: 107e 6f3d 1a52 263f 4b34 f93e 0e98 04be
00000220: 5031 373d 89f7 0c3e d6ac 41be 97f2 b33e
00000230: 0c75 093e 3293 f8be b7cf 083f 1019 f33d
00000240: c51c 1a3e 6406 b5be e6a9 613e 5dff e83d
00000250: 5b2e eb3d 4262 563e 8ee9 babd 7106 9f3d
00000260: 8c67 7d3e 8468 bbbd ee72 70bd 5154 7abe
00000270: 91ec 8d3e 2182 e23e f211 05be c9af 66bb
00000280: dea3 a93d eedc c6bc 2607 133f 8f4f ce3d
00000290: 9e78 a73e d551 74be 0135 1abe 28e2 673e
000002a0: f659 d4be b7d9 383e 230f 3b3e 5392 afbe
000002b0: 62f6 323e 3254 38be 4d5d 303e e6c0 433e
000002c0: c55c 233e 65d3 ab3e 1916 1c3e 78a4 4e3e
000002d0: 4b08 7f3d 903c 213e 14ad 1a3e 6584 b2bc
000002e0: 7109 2dbf d54e 33bf 6c5a 533e 7d3a 643d
000002f0: 9799 b9be 09e0 143e 0000 2abf 50f6 0e3e
00000300: 750c 4e3e b71d d23e 2e3b 933e ba59 313e
00000310: abc1 8d3d 3209 d1be de5d bc3e 186d 41bd
00000320: 7424 ef3d 7e29 5d3e f074 e7bd a40d 44bf
00000330: f519 633e 2c64 3c3d e24a d23e 1b05 99bd
00000340: 2b25 6f3e f81e a13d f3b1 35be 3b23 f73d
00000350: 0b77 623d 08b7 6e3e cdde 8ebe be8a 1dbd
00000360: 06d1 213e 0487 ddbe d95e 3cbe b4ef 0f3f
00000370: 0699 333f 52af a83c 2a74 99be c096 253e
00000380: 32bc 8fbe a2ce 423e d3d4 b83e 29bc 78bb
00000390: c448 363d 3e84 3bbe 96df 1d3e e096 d73e
000003a0: b474 99be 3ec6 3e3e 187e 293e 16d4 a2be
000003b0: 3e89 103f 3b67 85be 3075 193e df14 0abc
000003c0: 9e05 453d de3a bd3e 94eb 843e 3324 363e
000003d0: 18a2 903d 64a3 54bd e4ef de3d fb9c 813d
000003e0: 21a0 c6be 2847 97be 07db 9ebe 1af0 64bd
000003f0: 3fd6 28be 6cfd 003e 2d24 b2be 06bb e1bd

fc3.bias f4 [4]
0.33891827 0.30533582 0.19272685 0.22894835
00000000: b286 ad3e fa54 9c3e 305a 453e 7071 6a3e
